nohup: ignoring input
Tacotron2(
  (embedding): Embedding(37, 512)
  (gst): GST(
    (encoder): ReferenceEncoder(
      (convs): ModuleList(
        (0): Conv2d(1, 32, kernel_size=(3, 3), stride=(2, 2), padding=(1, 1))
        (1): Conv2d(32, 32, kernel_size=(3, 3), stride=(2, 2), padding=(1, 1))
        (2): Conv2d(32, 64, kernel_size=(3, 3), stride=(2, 2), padding=(1, 1))
        (3): Conv2d(64, 64, kernel_size=(3, 3), stride=(2, 2), padding=(1, 1))
        (4): Conv2d(64, 128, kernel_size=(3, 3), stride=(2, 2), padding=(1, 1))
        (5): Conv2d(128, 128, kernel_size=(3, 3), stride=(2, 2), padding=(1, 1))
      )
      (bns): ModuleList(
        (0): BatchNorm2d(32, eps=1e-05, momentum=0.1, affine=True, track_running_stats=True)
        (1): BatchNorm2d(32, eps=1e-05, momentum=0.1, affine=True, track_running_stats=True)
        (2): BatchNorm2d(64, eps=1e-05, momentum=0.1, affine=True, track_running_stats=True)
        (3): BatchNorm2d(64, eps=1e-05, momentum=0.1, affine=True, track_running_stats=True)
        (4): BatchNorm2d(128, eps=1e-05, momentum=0.1, affine=True, track_running_stats=True)
        (5): BatchNorm2d(128, eps=1e-05, momentum=0.1, affine=True, track_running_stats=True)
      )
      (gru): GRU(256, 256, batch_first=True)
    )
    (stl): StyleTokenLayer(
      (attention): MultiHeadAttention(
        (W_query): Linear(in_features=256, out_features=512, bias=False)
        (W_key): Linear(in_features=64, out_features=512, bias=False)
        (W_value): Linear(in_features=64, out_features=512, bias=False)
      )
    )
  )
  (ser): SER(
    (encoder): ReferenceEncoder(
      (convs): ModuleList(
        (0): Conv2d(1, 32, kernel_size=(3, 3), stride=(2, 2), padding=(1, 1))
        (1): Conv2d(32, 32, kernel_size=(3, 3), stride=(2, 2), padding=(1, 1))
        (2): Conv2d(32, 64, kernel_size=(3, 3), stride=(2, 2), padding=(1, 1))
        (3): Conv2d(64, 64, kernel_size=(3, 3), stride=(2, 2), padding=(1, 1))
        (4): Conv2d(64, 128, kernel_size=(3, 3), stride=(2, 2), padding=(1, 1))
        (5): Conv2d(128, 128, kernel_size=(3, 3), stride=(2, 2), padding=(1, 1))
      )
      (bns): ModuleList(
        (0): BatchNorm2d(32, eps=1e-05, momentum=0.1, affine=True, track_running_stats=True)
        (1): BatchNorm2d(32, eps=1e-05, momentum=0.1, affine=True, track_running_stats=True)
        (2): BatchNorm2d(64, eps=1e-05, momentum=0.1, affine=True, track_running_stats=True)
        (3): BatchNorm2d(64, eps=1e-05, momentum=0.1, affine=True, track_running_stats=True)
        (4): BatchNorm2d(128, eps=1e-05, momentum=0.1, affine=True, track_running_stats=True)
        (5): BatchNorm2d(128, eps=1e-05, momentum=0.1, affine=True, track_running_stats=True)
      )
      (gru): GRU(256, 256, batch_first=True)
    )
    (stl): StyleTokenLayer(
      (attention): MultiHeadAttention(
        (W_query): Linear(in_features=256, out_features=512, bias=False)
        (W_key): Linear(in_features=64, out_features=512, bias=False)
        (W_value): Linear(in_features=64, out_features=512, bias=False)
      )
    )
    (classify): ClassifyLayer(
      (linear_layer): ModuleList(
        (0): Linear(in_features=512, out_features=5, bias=True)
      )
      (dropout_layer): ModuleList(
        (0): Dropout(p=0.2, inplace=False)
      )
    )
  )
  (encoder): Encoder(
    (convolutions): ModuleList(
      (0): Sequential(
        (0): ConvNorm(
          (conv): Conv1d(512, 512, kernel_size=(5,), stride=(1,), padding=(2,))
        )
        (1): BatchNorm1d(512, eps=1e-05, momentum=0.1, affine=True, track_running_stats=True)
      )
      (1): Sequential(
        (0): ConvNorm(
          (conv): Conv1d(512, 512, kernel_size=(5,), stride=(1,), padding=(2,))
        )
        (1): BatchNorm1d(512, eps=1e-05, momentum=0.1, affine=True, track_running_stats=True)
      )
      (2): Sequential(
        (0): ConvNorm(
          (conv): Conv1d(512, 512, kernel_size=(5,), stride=(1,), padding=(2,))
        )
        (1): BatchNorm1d(512, eps=1e-05, momentum=0.1, affine=True, track_running_stats=True)
      )
    )
    (lstm): LSTM(512, 256, batch_first=True, bidirectional=True)
  )
  (decoder): Decoder(
    (prenet): Prenet(
      (layers): ModuleList(
        (0): LinearNorm(
          (linear_layer): Linear(in_features=80, out_features=256, bias=False)
        )
        (1): LinearNorm(
          (linear_layer): Linear(in_features=256, out_features=256, bias=False)
        )
      )
    )
    (attention_rnn): LSTMCell(768, 1024)
    (attention_layer): Attention(
      (query_layer): LinearNorm(
        (linear_layer): Linear(in_features=1024, out_features=128, bias=False)
      )
      (memory_layer): LinearNorm(
        (linear_layer): Linear(in_features=512, out_features=128, bias=False)
      )
      (v): LinearNorm(
        (linear_layer): Linear(in_features=128, out_features=1, bias=False)
      )
      (location_layer): LocationLayer(
        (location_conv): ConvNorm(
          (conv): Conv1d(2, 32, kernel_size=(31,), stride=(1,), padding=(15,), bias=False)
        )
        (location_dense): LinearNorm(
          (linear_layer): Linear(in_features=32, out_features=128, bias=False)
        )
      )
    )
    (decoder_rnn): LSTMCell(1536, 1024, bias=1)
    (linear_projection): LinearNorm(
      (linear_layer): Linear(in_features=1536, out_features=80, bias=True)
    )
    (gate_layer): LinearNorm(
      (linear_layer): Linear(in_features=1536, out_features=1, bias=True)
    )
  )
  (postnet): Postnet(
    (convolutions): ModuleList(
      (0): Sequential(
        (0): ConvNorm(
          (conv): Conv1d(80, 512, kernel_size=(5,), stride=(1,), padding=(2,))
        )
        (1): BatchNorm1d(512, eps=1e-05, momentum=0.1, affine=True, track_running_stats=True)
      )
      (1): Sequential(
        (0): ConvNorm(
          (conv): Conv1d(512, 512, kernel_size=(5,), stride=(1,), padding=(2,))
        )
        (1): BatchNorm1d(512, eps=1e-05, momentum=0.1, affine=True, track_running_stats=True)
      )
      (2): Sequential(
        (0): ConvNorm(
          (conv): Conv1d(512, 512, kernel_size=(5,), stride=(1,), padding=(2,))
        )
        (1): BatchNorm1d(512, eps=1e-05, momentum=0.1, affine=True, track_running_stats=True)
      )
      (3): Sequential(
        (0): ConvNorm(
          (conv): Conv1d(512, 512, kernel_size=(5,), stride=(1,), padding=(2,))
        )
        (1): BatchNorm1d(512, eps=1e-05, momentum=0.1, affine=True, track_running_stats=True)
      )
      (4): Sequential(
        (0): ConvNorm(
          (conv): Conv1d(512, 80, kernel_size=(5,), stride=(1,), padding=(2,))
        )
        (1): BatchNorm1d(80, eps=1e-05, momentum=0.1, affine=True, track_running_stats=True)
      )
    )
  )
)
total params: 29897542
trainable params: 29897542
/media/cv516/8e2bd071-88a1-41bb-a3dc-b7eadc0c192e/cv516/ceiling_workspace/renjie/GST-Tacotron2/models/stft.py:62: FutureWarning: Pass size=1024 as keyword args. From version 0.10 passing these as positional arguments will result in an error
  fft_window = pad_center(fft_window, filter_length)
…
